…
  0%|          | 0/10 [00:00<?, ?it/s] 10%|█         | 1/10 [00:03<00:33,  3.69s/it] 20%|██        | 2/10 [00:04<00:16,  2.07s/it] 30%|███       | 3/10 [00:05<00:10,  1.49s/it] 40%|████      | 4/10 [00:06<00:07,  1.23s/it] 50%|█████     | 5/10 [00:07<00:05,  1.08s/it] 60%|██████    | 6/10 [00:07<00:03,  1.02it/s] 70%|███████   | 7/10 [00:08<00:02,  1.08it/s] 80%|████████  | 8/10 [00:09<00:01,  1.13it/s] 90%|█████████ | 9/10 [00:10<00:00,  1.17it/s]100%|██████████| 10/10 [00:10<00:00,  1.34it/s]100%|██████████| 10/10 [00:10<00:00,  1.09s/it]

**** Zero-shot CLIP's test accuracy: 76.21. ****

Residual Attention Block 0: ResidualAttentionBlock(
  (attn): MultiheadAttention(
    (out_proj): NonDynamicallyQuantizableLinear(in_features=768, out_features=768, bias=True)
  )
  (ln_1): LayerNorm((768,), eps=1e-05, elementwise_affine=True)
  (mlp): Sequential(
    (c_fc): Linear(in_features=768, out_features=3072, bias=True)
    (gelu): QuickGELU()
    (c_proj): Linear(in_features=3072, out_features=768, bias=True)
  )
  (ln_2): LayerNorm((768,), eps=1e-05, elementwise_affine=True)
)
Residual Attention Block 1: ResidualAttentionBlock(
  (attn): MultiheadAttention(
    (out_proj): NonDynamicallyQuantizableLinear(in_features=768, out_features=768, bias=True)
  )
  (ln_1): LayerNorm((768,), eps=1e-05, elementwise_affine=True)
  (mlp): Sequential(
    (c_fc): Linear(in_features=768, out_features=3072, bias=True)
    (gelu): QuickGELU()
    (c_proj): Linear(in_features=3072, out_features=768, bias=True)
  )
  (ln_2): LayerNorm((768,), eps=1e-05, elementwise_affine=True)
)
Residual Attention Block 2: ResidualAttentionBlock(
  (attn): MultiheadAttention(
    (out_proj): NonDynamicallyQuantizableLinear(in_features=768, out_features=768, bias=True)
  )
  (ln_1): LayerNorm((768,), eps=1e-05, elementwise_affine=True)
  (mlp): Sequential(
    (c_fc): Linear(in_features=768, out_features=3072, bias=True)
    (gelu): QuickGELU()
    (c_proj): Linear(in_features=3072, out_features=768, bias=True)
  )
  (ln_2): LayerNorm((768,), eps=1e-05, elementwise_affine=True)
)
Residual Attention Block 3: ResidualAttentionBlock(
  (attn): MultiheadAttention(
    (out_proj): NonDynamicallyQuantizableLinear(in_features=768, out_features=768, bias=True)
  )
  (ln_1): LayerNorm((768,), eps=1e-05, elementwise_affine=True)
  (mlp): Sequential(
    (c_fc): Linear(in_features=768, out_features=3072, bias=True)
    (gelu): QuickGELU()
    (c_proj): Linear(in_features=3072, out_features=768, bias=True)
  )
  (ln_2): LayerNorm((768,), eps=1e-05, elementwise_affine=True)
)
Residual Attention Block 4: ResidualAttentionBlock(
  (attn): MultiheadAttention(
    (out_proj): NonDynamicallyQuantizableLinear(in_features=768, out_features=768, bias=True)
  )
  (ln_1): LayerNorm((768,), eps=1e-05, elementwise_affine=True)
  (mlp): Sequential(
    (c_fc): Linear(in_features=768, out_features=3072, bias=True)
    (gelu): QuickGELU()
    (c_proj): Linear(in_features=3072, out_features=768, bias=True)
  )
  (ln_2): LayerNorm((768,), eps=1e-05, elementwise_affine=True)
)
Residual Attention Block 5: ResidualAttentionBlock(
  (attn): MultiheadAttention(
    (out_proj): NonDynamicallyQuantizableLinear(in_features=768, out_features=768, bias=True)
  )
  (ln_1): LayerNorm((768,), eps=1e-05, elementwise_affine=True)
  (mlp): Sequential(
    (c_fc): Linear(in_features=768, out_features=3072, bias=True)
    (gelu): QuickGELU()
    (c_proj): Linear(in_features=3072, out_features=768, bias=True)
  )
  (ln_2): LayerNorm((768,), eps=1e-05, elementwise_affine=True)
)
Residual Attention Block 6: ResidualAttentionBlock(
  (attn): MultiheadAttention(
    (out_proj): NonDynamicallyQuantizableLinear(in_features=768, out_features=768, bias=True)
  )
  (ln_1): LayerNorm((768,), eps=1e-05, elementwise_affine=True)
  (mlp): Sequential(
    (c_fc): Linear(in_features=768, out_features=3072, bias=True)
    (gelu): QuickGELU()
    (c_proj): Linear(in_features=3072, out_features=768, bias=True)
  )
  (ln_2): LayerNorm((768,), eps=1e-05, elementwise_affine=True)
)
Residual Attention Block 7: ResidualAttentionBlock(
  (attn): MultiheadAttention(
    (out_proj): NonDynamicallyQuantizableLinear(in_features=768, out_features=768, bias=True)
  )
  (ln_1): LayerNorm((768,), eps=1e-05, elementwise_affine=True)
  (mlp): Sequential(
    (c_fc): Linear(in_features=768, out_features=3072, bias=True)
    (gelu): QuickGELU()
    (c_proj): Linear(in_features=3072, out_features=768, bias=True)
  )
  (ln_2): LayerNorm((768,), eps=1e-05, elementwise_affine=True)
)
Residual Attention Block 8: ResidualAttentionBlock(
  (attn): MultiheadAttention(
    (out_proj): NonDynamicallyQuantizableLinear(in_features=768, out_features=768, bias=True)
  )
  (ln_1): LayerNorm((768,), eps=1e-05, elementwise_affine=True)
  (mlp): Sequential(
    (c_fc): Linear(in_features=768, out_features=3072, bias=True)
    (gelu): QuickGELU()
    (c_proj): Linear(in_features=3072, out_features=768, bias=True)
  )
  (ln_2): LayerNorm((768,), eps=1e-05, elementwise_affine=True)
)
Residual Attention Block 9: ResidualAttentionBlock(
  (attn): MultiheadAttention(
    (out_proj): NonDynamicallyQuantizableLinear(in_features=768, out_features=768, bias=True)
  )
  (ln_1): LayerNorm((768,), eps=1e-05, elementwise_affine=True)
  (mlp): Sequential(
    (c_fc): Linear(in_features=768, out_features=3072, bias=True)
    (gelu): QuickGELU()
    (c_proj): Linear(in_features=3072, out_features=768, bias=True)
  )
  (ln_2): LayerNorm((768,), eps=1e-05, elementwise_affine=True)
)
Residual Attention Block 10: ResidualAttentionBlock(
  (attn): MultiheadAttention(
    (out_proj): NonDynamicallyQuantizableLinear(in_features=768, out_features=768, bias=True)
  )
  (ln_1): LayerNorm((768,), eps=1e-05, elementwise_affine=True)
  (mlp): Sequential(
    (c_fc): Linear(in_features=768, out_features=3072, bias=True)
    (gelu): QuickGELU()
    (c_proj): Linear(in_features=3072, out_features=768, bias=True)
  )
  (ln_2): LayerNorm((768,), eps=1e-05, elementwise_affine=True)
)
Residual Attention Block 11: ResidualAttentionBlock(
  (attn): MultiheadAttention(
    (out_proj): NonDynamicallyQuantizableLinear(in_features=768, out_features=768, bias=True)
  )
  (ln_1): LayerNorm((768,), eps=1e-05, elementwise_affine=True)
  (mlp): Sequential(
    (c_fc): Linear(in_features=768, out_features=3072, bias=True)
    (gelu): QuickGELU()
    (c_proj): Linear(in_features=3072, out_features=768, bias=True)
  )
  (ln_2): LayerNorm((768,), eps=1e-05, elementwise_affine=True)
)
Residual Attention Block 0: ResidualAttentionBlock(
  (attn): MultiheadAttention(
    (out_proj): NonDynamicallyQuantizableLinear(in_features=1024, out_features=1024, bias=True)
  )
  (ln_1): LayerNorm((1024,), eps=1e-05, elementwise_affine=True)
  (mlp): Sequential(
    (c_fc): Linear(in_features=1024, out_features=4096, bias=True)
    (gelu): QuickGELU()
    (c_proj): Linear(in_features=4096, out_features=1024, bias=True)
  )
  (ln_2): LayerNorm((1024,), eps=1e-05, elementwise_affine=True)
)
Residual Attention Block 1: ResidualAttentionBlock(
  (attn): MultiheadAttention(
    (out_proj): NonDynamicallyQuantizableLinear(in_features=1024, out_features=1024, bias=True)
  )
  (ln_1): LayerNorm((1024,), eps=1e-05, elementwise_affine=True)
  (mlp): Sequential(
    (c_fc): Linear(in_features=1024, out_features=4096, bias=True)
    (gelu): QuickGELU()
    (c_proj): Linear(in_features=4096, out_features=1024, bias=True)
  )
  (ln_2): LayerNorm((1024,), eps=1e-05, elementwise_affine=True)
)
Residual Attention Block 2: ResidualAttentionBlock(
  (attn): MultiheadAttention(
    (out_proj): NonDynamicallyQuantizableLinear(in_features=1024, out_features=1024, bias=True)
  )
  (ln_1): LayerNorm((1024,), eps=1e-05, elementwise_affine=True)
  (mlp): Sequential(
    (c_fc): Linear(in_features=1024, out_features=4096, bias=True)
    (gelu): QuickGELU()
    (c_proj): Linear(in_features=4096, out_features=1024, bias=True)
  )
  (ln_2): LayerNorm((1024,), eps=1e-05, elementwise_affine=True)
)
Residual Attention Block 3: ResidualAttentionBlock(
  (attn): MultiheadAttention(
    (out_proj): NonDynamicallyQuantizableLinear(in_features=1024, out_features=1024, bias=True)
  )
  (ln_1): LayerNorm((1024,), eps=1e-05, elementwise_affine=True)
  (mlp): Sequential(
    (c_fc): Linear(in_features=1024, out_features=4096, bias=True)
    (gelu): QuickGELU()
    (c_proj): Linear(in_features=4096, out_features=1024, bias=True)
  )
  (ln_2): LayerNorm((1024,), eps=1e-05, elementwise_affine=True)
)
Residual Attention Block 4: ResidualAttentionBlock(
  (attn): MultiheadAttention(
    (out_proj): NonDynamicallyQuantizableLinear(in_features=1024, out_features=1024, bias=True)
  )
  (ln_1): LayerNorm((1024,), eps=1e-05, elementwise_affine=True)
  (mlp): Sequential(
    (c_fc): Linear(in_features=1024, out_features=4096, bias=True)
    (gelu): QuickGELU()
    (c_proj): Linear(in_features=4096, out_features=1024, bias=True)
  )
  (ln_2): LayerNorm((1024,), eps=1e-05, elementwise_affine=True)
)
Residual Attention Block 5: ResidualAttentionBlock(
  (attn): MultiheadAttention(
    (out_proj): NonDynamicallyQuantizableLinear(in_features=1024, out_features=1024, bias=True)
  )
  (ln_1): LayerNorm((1024,), eps=1e-05, elementwise_affine=True)
  (mlp): Sequential(
    (c_fc): Linear(in_features=1024, out_features=4096, bias=True)
    (gelu): QuickGELU()
    (c_proj): Linear(in_features=4096, out_features=1024, bias=True)
  )
  (ln_2): LayerNorm((1024,), eps=1e-05, elementwise_affine=True)
)
Residual Attention Block 6: ResidualAttentionBlock(
  (attn): MultiheadAttention(
    (out_proj): NonDynamicallyQuantizableLinear(in_features=1024, out_features=1024, bias=True)
  )
  (ln_1): LayerNorm((1024,), eps=1e-05, elementwise_affine=True)
  (mlp): Sequential(
    (c_fc): Linear(in_features=1024, out_features=4096, bias=True)
    (gelu): QuickGELU()
    (c_proj): Linear(in_features=4096, out_features=1024, bias=True)
  )
  (ln_2): LayerNorm((1024,), eps=1e-05, elementwise_affine=True)
)
Residual Attention Block 7: ResidualAttentionBlock(
  (attn): MultiheadAttention(
    (out_proj): NonDynamicallyQuantizableLinear(in_features=1024, out_features=1024, bias=True)
  )
  (ln_1): LayerNorm((1024,), eps=1e-05, elementwise_affine=True)
  (mlp): Sequential(
    (c_fc): Linear(in_features=1024, out_features=4096, bias=True)
    (gelu): QuickGELU()
    (c_proj): Linear(in_features=4096, out_features=1024, bias=True)
  )
  (ln_2): LayerNorm((1024,), eps=1e-05, elementwise_affine=True)
)
Residual Attention Block 8: ResidualAttentionBlock(
  (attn): MultiheadAttention(
    (out_proj): NonDynamicallyQuantizableLinear(in_features=1024, out_features=1024, bias=True)
  )
  (ln_1): LayerNorm((1024,), eps=1e-05, elementwise_affine=True)
  (mlp): Sequential(
    (c_fc): Linear(in_features=1024, out_features=4096, bias=True)
    (gelu): QuickGELU()
    (c_proj): Linear(in_features=4096, out_features=1024, bias=True)
  )
  (ln_2): LayerNorm((1024,), eps=1e-05, elementwise_affine=True)
)
Residual Attention Block 9: ResidualAttentionBlock(
  (attn): MultiheadAttention(
    (out_proj): NonDynamicallyQuantizableLinear(in_features=1024, out_features=1024, bias=True)
  )
  (ln_1): LayerNorm((1024,), eps=1e-05, elementwise_affine=True)
  (mlp): Sequential(
    (c_fc): Linear(in_features=1024, out_features=4096, bias=True)
    (gelu): QuickGELU()
    (c_proj): Linear(in_features=4096, out_features=1024, bias=True)
  )
  (ln_2): LayerNorm((1024,), eps=1e-05, elementwise_affine=True)
)
Residual Attention Block 10: ResidualAttentionBlock(
  (attn): MultiheadAttention(
    (out_proj): NonDynamicallyQuantizableLinear(in_features=1024, out_features=1024, bias=True)
  )
  (ln_1): LayerNorm((1024,), eps=1e-05, elementwise_affine=True)
  (mlp): Sequential(
    (c_fc): Linear(in_features=1024, out_features=4096, bias=True)
    (gelu): QuickGELU()
    (c_proj): Linear(in_features=4096, out_features=1024, bias=True)
  )
  (ln_2): LayerNorm((1024,), eps=1e-05, elementwise_affine=True)
)
Residual Attention Block 11: ResidualAttentionBlock(
  (attn): MultiheadAttention(
    (out_proj): NonDynamicallyQuantizableLinear(in_features=1024, out_features=1024, bias=True)
  )
  (ln_1): LayerNorm((1024,), eps=1e-05, elementwise_affine=True)
  (mlp): Sequential(
    (c_fc): Linear(in_features=1024, out_features=4096, bias=True)
    (gelu): QuickGELU()
    (c_proj): Linear(in_features=4096, out_features=1024, bias=True)
  )
  (ln_2): LayerNorm((1024,), eps=1e-05, elementwise_affine=True)
)
Residual Attention Block 12: ResidualAttentionBlock(
  (attn): MultiheadAttention(
    (out_proj): NonDynamicallyQuantizableLinear(in_features=1024, out_features=1024, bias=True)
  )
  (ln_1): LayerNorm((1024,), eps=1e-05, elementwise_affine=True)
  (mlp): Sequential(
    (c_fc): Linear(in_features=1024, out_features=4096, bias=True)
    (gelu): QuickGELU()
    (c_proj): Linear(in_features=4096, out_features=1024, bias=True)
  )
  (ln_2): LayerNorm((1024,), eps=1e-05, elementwise_affine=True)
)
Residual Attention Block 13: ResidualAttentionBlock(
  (attn): MultiheadAttention(
    (out_proj): NonDynamicallyQuantizableLinear(in_features=1024, out_features=1024, bias=True)
  )
  (ln_1): LayerNorm((1024,), eps=1e-05, elementwise_affine=True)
  (mlp): Sequential(
    (c_fc): Linear(in_features=1024, out_features=4096, bias=True)
    (gelu): QuickGELU()
    (c_proj): Linear(in_features=4096, out_features=1024, bias=True)
  )
  (ln_2): LayerNorm((1024,), eps=1e-05, elementwise_affine=True)
)
Residual Attention Block 14: ResidualAttentionBlock(
  (attn): MultiheadAttention(
    (out_proj): NonDynamicallyQuantizableLinear(in_features=1024, out_features=1024, bias=True)
  )
  (ln_1): LayerNorm((1024,), eps=1e-05, elementwise_affine=True)
  (mlp): Sequential(
    (c_fc): Linear(in_features=1024, out_features=4096, bias=True)
    (gelu): QuickGELU()
    (c_proj): Linear(in_features=4096, out_features=1024, bias=True)
  )
  (ln_2): LayerNorm((1024,), eps=1e-05, elementwise_affine=True)
)
Residual Attention Block 15: ResidualAttentionBlock(
  (attn): MultiheadAttention(
    (out_proj): NonDynamicallyQuantizableLinear(in_features=1024, out_features=1024, bias=True)
  )
  (ln_1): LayerNorm((1024,), eps=1e-05, elementwise_affine=True)
  (mlp): Sequential(
    (c_fc): Linear(in_features=1024, out_features=4096, bias=True)
    (gelu): QuickGELU()
    (c_proj): Linear(in_features=4096, out_features=1024, bias=True)
  )
  (ln_2): LayerNorm((1024,), eps=1e-05, elementwise_affine=True)
)
Residual Attention Block 16: ResidualAttentionBlock(
  (attn): MultiheadAttention(
    (out_proj): NonDynamicallyQuantizableLinear(in_features=1024, out_features=1024, bias=True)
  )
  (ln_1): LayerNorm((1024,), eps=1e-05, elementwise_affine=True)
  (mlp): Sequential(
    (c_fc): Linear(in_features=1024, out_features=4096, bias=True)
    (gelu): QuickGELU()
    (c_proj): Linear(in_features=4096, out_features=1024, bias=True)
  )
  (ln_2): LayerNorm((1024,), eps=1e-05, elementwise_affine=True)
)
Residual Attention Block 17: ResidualAttentionBlock(
  (attn): MultiheadAttention(
    (out_proj): NonDynamicallyQuantizableLinear(in_features=1024, out_features=1024, bias=True)
  )
  (ln_1): LayerNorm((1024,), eps=1e-05, elementwise_affine=True)
  (mlp): Sequential(
    (c_fc): Linear(in_features=1024, out_features=4096, bias=True)
    (gelu): QuickGELU()
    (c_proj): Linear(in_features=4096, out_features=1024, bias=True)
  )
  (ln_2): LayerNorm((1024,), eps=1e-05, elementwise_affine=True)
)
Residual Attention Block 18: ResidualAttentionBlock(
  (attn): MultiheadAttention(
    (out_proj): NonDynamicallyQuantizableLinear(in_features=1024, out_features=1024, bias=True)
  )
  (ln_1): LayerNorm((1024,), eps=1e-05, elementwise_affine=True)
  (mlp): Sequential(
    (c_fc): Linear(in_features=1024, out_features=4096, bias=True)
    (gelu): QuickGELU()
    (c_proj): Linear(in_features=4096, out_features=1024, bias=True)
  )
  (ln_2): LayerNorm((1024,), eps=1e-05, elementwise_affine=True)
)
Residual Attention Block 19: ResidualAttentionBlock(
  (attn): MultiheadAttention(
    (out_proj): NonDynamicallyQuantizableLinear(in_features=1024, out_features=1024, bias=True)
  )
  (ln_1): LayerNorm((1024,), eps=1e-05, elementwise_affine=True)
  (mlp): Sequential(
    (c_fc): Linear(in_features=1024, out_features=4096, bias=True)
    (gelu): QuickGELU()
    (c_proj): Linear(in_features=4096, out_features=1024, bias=True)
  )
  (ln_2): LayerNorm((1024,), eps=1e-05, elementwise_affine=True)
)
Residual Attention Block 20: ResidualAttentionBlock(
  (attn): MultiheadAttention(
    (out_proj): NonDynamicallyQuantizableLinear(in_features=1024, out_features=1024, bias=True)
  )
  (ln_1): LayerNorm((1024,), eps=1e-05, elementwise_affine=True)
  (mlp): Sequential(
    (c_fc): Linear(in_features=1024, out_features=4096, bias=True)
    (gelu): QuickGELU()
    (c_proj): Linear(in_features=4096, out_features=1024, bias=True)
  )
  (ln_2): LayerNorm((1024,), eps=1e-05, elementwise_affine=True)
)
Residual Attention Block 21: ResidualAttentionBlock(
  (attn): MultiheadAttention(
    (out_proj): NonDynamicallyQuantizableLinear(in_features=1024, out_features=1024, bias=True)
  )
  (ln_1): LayerNorm((1024,), eps=1e-05, elementwise_affine=True)
  (mlp): Sequential(
    (c_fc): Linear(in_features=1024, out_features=4096, bias=True)
    (gelu): QuickGELU()
    (c_proj): Linear(in_features=4096, out_features=1024, bias=True)
  )
  (ln_2): LayerNorm((1024,), eps=1e-05, elementwise_affine=True)
)/home/jovyan/lectures/dl4nlp/tuw-dl4nlp-2026s/reproducing-clip-lora/lora.py:82: FutureWarning: `torch.cuda.amp.GradScaler(args...)` is deprecated. Please use `torch.amp.GradScaler('cuda', args...)` instead.
  scaler = torch.cuda.amp.GradScaler()

Residual Attention Block 22: ResidualAttentionBlock(
  (attn): MultiheadAttention(
    (out_proj): NonDynamicallyQuantizableLinear(in_features=1024, out_features=1024, bias=True)
  )
  (ln_1): LayerNorm((1024,), eps=1e-05, elementwise_affine=True)
  (mlp): Sequential(
    (c_fc): Linear(in_features=1024, out_features=4096, bias=True)
    (gelu): QuickGELU()
    (c_proj): Linear(in_features=4096, out_features=1024, bias=True)
  )
  (ln_2): LayerNorm((1024,), eps=1e-05, elementwise_affine=True)
)
Residual Attention Block 23: ResidualAttentionBlock(
  (attn): MultiheadAttention(
    (out_proj): NonDynamicallyQuantizableLinear(in_features=1024, out_features=1024, bias=True)
  )
  (ln_1): LayerNorm((1024,), eps=1e-05, elementwise_affine=True)
  (mlp): Sequential(
    (c_fc): Linear(in_features=1024, out_features=4096, bias=True)
    (gelu): QuickGELU()
    (c_proj): Linear(in_features=4096, out_features=1024, bias=True)
  )
  (ln_2): LayerNorm((1024,), eps=1e-05, elementwise_affine=True)
)
  0%|          | 0/13 [00:00<?, ?it/s]/home/jovyan/lectures/dl4nlp/tuw-dl4nlp-2026s/reproducing-clip-lora/.venv/lib/python3.11/site-packages/torch/optim/lr_scheduler.py:224: UserWarning: Detected call of `lr_scheduler.step()` before `optimizer.step()`. In PyTorch 1.1.0 and later, you should call them in the opposite order: `optimizer.step()` before `lr_scheduler.step()`.  Failure to do this will result in PyTorch skipping the first value of the learning rate schedule. See more details at https://pytorch.org/docs/stable/optim.html#how-to-adjust-learning-rate
…
